annotations/asl_mlp.onnx (onnx, 366531 bytes, 6 tensors)

net.0.weight f4 [256, 63]
0.096318334 0.10456446 -0.02951388 0.11572744 -0.027602777 0.025422126 -0.061334617 0.07398619
0.11105727 -0.09242399 0.10950172 0.023578733 0.09307669 0.017061532 0.06074664 -0.017787278
0.09711802 0.018621057 -0.058812946 0.032111928 -0.05804401 -0.014774155 -0.051168904 0.08357242
-0.09944682 -0.05807849 -0.03557364 -0.07574874 0.011890598 -0.12442917 0.113774344 -0.10701623
0.09726183 0.020965725 -0.04090669 0.07784991 0.019634232 0.10178934 0.013772141 -0.039731048
0.033848718 -0.034163162 0.053019717 0.112478316 0.07282418 -0.055075206 0.072724044 0.022541463
0.063976735 -0.07678595 -0.12471004 -0.048674613 -0.096631326 0.10337371 0.03628631 0.052182645
0.039842933 -0.0021915454 0.098594904 -0.08951183 0.007932119 -0.08598751 0.038846463 0.005995743
-0.003651247 -0.06652313 0.12553146 0.049680416 -0.08493019 -0.011204438 0.20430617 0.010388338
0.17514786 -0.025133861 -0.18341318 -0.09512479 0.014973119 -0.028627895 0.08624034 0.15472323
-0.08451027 -0.10910998 0.11010882 -0.05004393 0.07532584 0.0014657051 0.07220438 -0.09491023
-0.040440984 0.03654864 0.06167409 0.004685488 0.077501364 0.14841239 -0.056839533 -0.02072798
0.19675575 -0.02744524 -0.013511859 -0.054604985 -0.073987715 0.03723581 -0.0063936478 -0.06829945
0.037823714 -0.10458044 -0.08840418 -0.010264822 -0.0858604 -0.040985815 0.18999478 0.04892584
0.1167656 -0.04837241 -0.12684473 -0.03641051 0.053395458 -0.20041436 -0.055575743 -0.024253834
-0.10892386 -0.10351655 0.013904234 -0.20627795 -0.18646528 -0.08410574 -0.051333796 -0.03684726
0.13619539 -0.16375276 -0.093848385 0.07316564 -0.2708184 -0.07670607 0.007552695 -0.13489956
-0.2585517 -0.08373043 0.13805798 -0.20767255 0.105446786 -0.24151361 0.048899043 -0.026154798
0.054902498 -0.0036555652 0.033147734 0.23070307 0.1480829 -0.123671144 0.19029236 0.028202431
-0.0080290465 -0.16167715 0.08512127 -0.05417033 -0.04575287 0.007144396 -0.0067910864 -0.26281133
0.07869023 -0.0029349567 -0.19191556 -0.14887717 0.045539856 0.02732991 -0.059969977 0.03918248
0.10987555 -0.06500802 -0.14001001 0.03267064 0.05024134 -0.080539756 -0.046066884 -0.10372158
-0.11282757 0.18242593 0.13922292 -0.21587965 0.1495408 0.10001121 -0.0707863 0.04476681
0.08362311 -0.013366638 0.12832099 -0.041382365 -0.087667026 0.0018353688 -0.03438434 -0.037153978
0.0821854 0.20237796 0.023590056 0.0075945873 0.037824254 0.00532337 -0.007992765 0.073482506
-0.11909834 -0.22377539 0.19785066 0.020253638 0.037898302 -0.09968823 -0.05072875 -0.18509063
-0.058787014 0.039291665 0.0023757773 0.065434694 -0.16874428 -0.17203452 0.015549789 0.032583676
0.055369183 -0.06171326 0.046662595 0.07356929 -0.11101535 0.044600166 0.099486075 0.019668425
-0.18334545 0.23317517 0.2130784 0.0015891383 -0.10435462 -0.16925661 -0.15700497 0.09502005
-0.0024983287 0.10991534 0.052222207 -0.033012826 -0.018852476 -0.14859937 -0.16052121 -0.16527455
-0.006689952 -0.119205415 -0.077250175 -0.11002553 -0.07721274 -0.08804984 -0.11594866 0.011172719
-0.01799291 0.02420451 -0.03097317 -0.071556695 -0.03458152 -0.06366382 0.03168629 -0.10775609
00000000: 8c42 c53d e425 d63d 18c7 f1bc 8202 ed3d
00000010: 381f e2bc 1042 d03c 023a 7bbd 1286 973d
00000020: fe71 e33d ca48 bdbd 7042 e03d 3028 c13c
00000030: fe9e be3d a0c4 8b3c 78d1 783d a0b6 91bc
00000040: d0e5 c63d 308b 983c d8e5 70bd cc87 033d
00000050: 8ebf 6dbd 4c0f 72bc 7c96 51bd 0428 ab3d
00000060: c6aa cbbd b6e3 6dbd aab5 11bd 2822 9bbd
00000070: c8d0 423c b8d4 febd 8602 e93d 532b dbbd
00000080: 3631 c73d 50c0 ab3c c68d 27bd c66f 9f3d
00000090: f8d7 a03c ee76 d03d 8ca4 613c 06bd 22bd
000000a0: f4a4 0a3d acee 0bbd 342b 593d 085b e63d
000000b0: d824 953d 8a96 61bd 58f0 943d e0a8 b83c
000000c0: 3c06 833d f441 9dbd fa67 ffbd 085f 47bd
000000d0: a5e6 c5bd 98b5 d33d f4a0 143d 78bd 553d
000000e0: 5832 233d 08a0 0fbb 20ec c93d fa51 b7bd
000000f0: b8f5 013c 381a b0bd 781d 1f3d f077 c43b
00000100: c249 6fbb 473d 88bd 528b 003e b17d 4b3d
00000110: e1ef adbd d292 37bc a335 513e d933 2a3c
00000120: f659 333e 87e5 cdbc aad0 3bbe c9d0 c2bd
00000130: d051 753c 0c85 eabc c69e b03d c46f 1e3e
00000140: b813 adbd 0e75 dfbd bc80 e13d ddfa 4cbd
00000150: 6f44 9a3d e71c c03a e4df 933d 4b60 c2bd
00000160: 72a5 25bd 07b4 153d f89d 7c3d b988 993b
00000170: 09b9 9e3d 6bf9 173e 92d0 68bd bacd a9bc
00000180: 577a 493e d7d4 e0bc d860 5dbc 7aa9 5fbd
00000190: df86 97bd 9484 183d ce81 d1bb 95e0 8bbd
000001a0: 0aed 1a3d 452e d6bd 400d b5bd c92d 28bc
000001b0: 94d7 afbd bee0 27bd fe8d 423e 7666 483d
000001c0: ce22 ef3d 2622 46bd 96e3 01be 3023 15bd
000001d0: 32b5 5a3d 6c39 4dbe 64a3 63bd faaf c6bc
000001e0: 7913 dfbd 7c00 d4bd 96ce 633c 873a 53be
000001f0: c1f0 3ebe a13f acbd 6343 52bd 27ed 16bd
00000200: ce76 0b3e ceae 27be 9533 c0bd ded7 953d
00000210: b6a8 8abe 1218 9dbd 997c f73b 1c23 0abe
00000220: e360 84be dc7a abbd 125f 0d3e 1da8 54be
00000230: 7cf4 d73d 584f 77be 5d4a 483d 9642 d6bc
00000240: 71e1 603d 3592 6fbb ebc5 073d 6d3d 6c3e
00000250: 0ba3 173e 4c47 fdbd 00dc 423e c908 e73c
00000260: 438c 03bc b28e 25be 0f54 ae3d b5e1 5dbd
00000270: 5d67 3bbd 8a1b ea3b c387 debb 358f 86be
00000280: 5828 a13d 6758 40bb 8385 44be 4273 18be
00000290: 0088 3a3d fae2 df3c 14a3 75bd cf7d 203d
000002a0: 6f06 e13d ed22 85bd c95e 0fbe a6d1 053d
000002b0: ddc9 4d3d 07f2 a4bd a1b0 3cbd fb6b d4bd
000002c0: 2412 e7bd ddcd 3a3e 7490 0e3e 8e0f 5dbe
000002d0: 3921 193e add2 cc3d 68f8 90bd 675d 373d
000002e0: 9842 ab3d beff 5abc 9466 033e 8e80 29bd
000002f0: c58a b3bd c290 f03a 98d6 0cbd c52e 18bd
00000300: d250 a83d 2b3c 4f3e ef3f c13c 04dc f83b
00000310: 9bed 1a3d aa6f ae3b 16f4 02bc ff7d 963d
00000320: d5e9 f3bd 6025 65be 5d99 4a3e f5ea a53c
00000330: 403b 1b3d 5829 ccbd f3c8 4fbd 6688 3dbe
00000340: a7ca 70bd 4cf0 203d eeb2 1b3b a002 863d
00000350: 4dcb 2cbe d129 30be 8bc4 7e3c 7676 053d
00000360: ccca 623d 0bc7 7cbd 4721 3f3d 7fab 963d
00000370: 045c e3bd aaae 363d 5bbf cb3d ad1f a13c
00000380: e9be 3bbe 79c5 6e3e 3931 5a3e a24a d03a
00000390: e0b7 d5bd 9b51 2dbe e9c5 20be df99 c23d
000003a0: 00bb 23bb 4b1b e13d f4e6 553d 7538 07bd
000003b0: 8270 9abc 6f2a 18be ac5f 24be bb3d 29be
000003c0: 6337 dbbb f821 f4bd 5735 9ebd 1155 e1bd
000003d0: b721 9ebd 7953 b4bd 7e76 edbd c80d 373c
000003e0: de65 93bc 8948 c63c 72bb fdbc 518c 92bd
000003f0: 5aa5 0dbd 2d62 82bd 7cc9 013d 3aaf dcbd

net.0.bias f4 [256]
-0.073771 -0.13609762 0.22329003 -0.065235205 -0.033177506 0.1884499 -0.027711395 0.19527553
0.18506387 0.07516753 -0.04551122 0.08393867 0.072664395 -0.020674286 -0.09612345 -0.013981531
0.079110585 0.09630646 0.08281733 0.16240339 -0.06428193 0.014878197 0.14546785 -0.09520907
-0.098820254 0.15368463 0.073255226 -0.03152596 0.10342963 -0.1063994 0.01909329 0.0024398535
-0.09714671 0.08715363 -0.024142247 -0.11043649 0.08137823 -0.1271206 -0.10798309 0.056528956
0.07308758 0.048775274 -0.14108126 0.13185416 -0.057895634 -0.04329944 0.18924901 0.11997287
-0.027601175 0.061902314 -0.022028642 -0.017048202 0.082799084 -0.036927503 0.085459284 0.18681145
0.15384185 0.114799626 0.08327006 0.042751435 -0.056793366 0.12829243 0.095733956 0.07740668
-0.10552175 0.1080159 0.20256168 -0.0037020426 0.11805235 -0.14076206 0.062147856 0.040983554
0.18674885 0.054083556 0.2151537 -0.062692374 0.011586107 0.18781437 -0.0911098 -0.009515781
-0.10204469 -0.10658443 0.029687362 -0.036394093 0.09891013 0.034096275 0.10747862 -0.0144740315
-0.050505314 -0.03527353 -0.059157275 -0.06640393 0.15840775 0.07526651 -0.08820323 -0.09976867
-0.06712369 0.053674463 0.08738642 0.05768791 -0.027714249 0.13970535 0.066038266 0.04431296
-0.060717624 -0.00845857 0.15259925 0.010393372 0.194821 -0.0093249455 0.09023746 -0.04378612
-0.10261977 -0.04165578 0.13689059 0.19972186 -0.095622696 -0.10352388 0.029555084 0.03872944
0.010976504 0.011182473 -0.056241516 -0.020153502 0.061968055 -0.073152065 -0.072235584 0.13257961
-0.0012861366 -0.03680034 0.11392285 -0.0097696725 -0.1351125 -0.0969131 0.14580458 -0.062375788
0.034961894 0.07010861 0.108979724 -0.018407786 0.045241155 -0.08575344 -0.0020840825 0.028018348
-0.0071681337 0.08731098 0.040666554 0.12875848 0.17454942 -0.011479444 0.1639726 -0.10203483
0.12433994 -0.032772277 -0.08286791 -0.07583981 -0.082741275 -0.07141757 0.10371909 -0.12048224
-0.071027584 0.010606469 0.042723257 -0.0452047 0.062416036 -0.101930976 0.07838715 -0.109935716
-0.018209342 0.13518485 0.043383885 0.113777675 0.13222492 -0.10643728 0.09855183 -0.032692432
-0.029768694 -0.09831701 0.0821978 -0.15790248 0.033888403 0.12524572 0.01660603 0.15145484
-0.07435733 0.046219856 0.00032234762 -0.07722409 0.1657834 -0.0010623151 -0.012620596 0.05776426
0.0066087046 0.18082924 0.023579497 0.09155432 0.05789101 0.06443343 -0.18101065 -0.1341753
0.005608991 0.0259729 0.20449676 0.18164147 -0.04428405 -0.06232958 -0.01257568 0.0772996
0.028817492 0.023780689 0.10843948 0.011435654 0.17508359 0.08265003 0.042434942 0.22323503
-0.07631284 0.06790061 0.019745672 0.020712608 -0.054235898 0.19474626 0.050286856 -0.011536728
-0.031763837 0.05315099 -0.15308428 -0.07881437 -0.087934874 -0.05039045 0.010273111 -0.1151015
0.117582664 -0.016351828 -0.10521452 -0.021416426 0.08158355 -0.028950205 0.19320501 -0.054027546
0.15961406 0.083992854 -0.07241094 -0.18951285 0.12025256 -0.014272661 0.11904664 0.1266193
-0.042679958 -0.0479706 -0.05265414 -0.07126244 0.02222687 0.053543076 -0.06482976 0.20739181
00000000: 4015 97bd 2d5d 0bbe 24a6 643e 099a 85bd
00000010: 23e5 07bd 03f9 403e 0203 e3bc 4ff6 473e
00000020: 6281 3d3e 6ff1 993d f969 3abd 0ae8 ab3d
00000030: 12d1 943d 1f5d a9bc 5fdc c4bd cb12 65bc
00000040: bb04 a23d 523c c53d 229c a93d 134d 263e
00000050: 3fa6 83bd aec3 733c 86f5 143e f9fc c2bd
00000060: 4662 cabd 815f 1d3e d606 963d 5d21 01bd
00000070: ead2 d33d eee7 d9bd 8869 9c3c f3e5 1f3b
00000080: dbf4 c6bd 9a7d b23d f6c5 c5bc 872c e2bd
00000090: a1a9 a63d e72b 02be 3d26 ddbd e88a 673d
000000a0: f1ae 953d 95c8 473d 9b77 10be c704 073e
000000b0: f923 6dbd c15a 31bd 7eca 413e 56b4 f53d
000000c0: dc1b e2bc 488d 7d3d 6975 b4bc aca8 8bbc
000000d0: 9192 a93d 4b41 17bd 4705 af3d 804b 3f3e
000000e0: b888 1d3e 111c eb3d 7e89 aa3d 211c 2f3d
000000f0: 29a0 68bd 175f 033e 2a10 c43d 6587 9e3d
00000100: ca1b d8bd 7137 dd3d 546c 4f3e f89d 72bb
00000110: 6ec5 f13d ee23 10be c08e 7e3d 5fde 273d
00000120: 173b 3f3e b886 5d3d 4051 5c3e dc64 80bd
00000130: a8d3 3d3c 6952 403e c697 babd 14e8 1bbc
00000140: cefc d0bd f048 dabd e932 f33c f911 15bd
00000150: 6591 ca3d 89a8 0b3d c01d dc3d 7d24 6dbc
00000160: a9de 4ebd fa7a 10bd e64e 72bd c9fe 87bd
00000170: a435 223e 5425 9a3d e5a3 b4bd 8453 ccbd
00000180: 2578 89bd c1d9 5b3d a7f7 b23d 284a 6c3d
00000190: fe08 e3bc eb0e 0f3e 123f 873d 8281 353d
000001a0: 0bb3 78bd d095 0abc fa42 1c3e f648 2a3c
000001b0: 287f 473e a8c7 18bc 6bce b83d 1359 33bd
000001c0: 502a d2bd 409f 2abd 0c2d 0c3e e383 4c3e
000001d0: d5d5 c3bd 5404 d4bd 811d f23c c3a2 1e3d
000001e0: cbd6 333c b136 373c 815d 66bd f518 a5bc
000001f0: 37d2 7d3d c0d0 95bd 40f0 93bd f3c2 073e
00000200: 9593 a8ba f4bb 16bd 6250 e93d fa10 20bc
00000210: ee5a 0abe 607a c6bd cc4d 153e c17d 7fbd
00000220: 3434 0f3d 1a95 8f3d c330 df3d edcb 96bc
00000230: ca4e 393d 809f afbd 1a95 08bb bc86 e53c
00000240: aae2 eabb 19d0 b23d f991 263d 43d9 033e
00000250: 15bd 323e 4714 3cbc 6fe8 273e a3f7 d0bd
00000260: f0a5 fe3d 393c 06bd a7b6 a9bd e751 9bbd
00000270: 4274 a9bd 6043 92bd ad6a d43d 65bf f6bd
00000280: e976 91bd c1c6 2d3c 95fe 2e3d 9028 39bd
00000290: f5a7 7f3d 30c1 d0bd 7189 a03d fa25 e1bd
000002a0: c22b 95bc e66d 0a3e 4db3 313d 4504 e93d
000002b0: f865 073e cafb d9bd 8bd5 c93d 80e8 05bd
000002c0: 7add f3bc 6e5a c9bd 5257 a83d 30b1 21be
000002d0: 91ce 0a3d 6a40 003e 5e09 883c fa16 1b3e
000002e0: a848 98bd 0851 3d3d c400 a939 aa27 9ebd
000002f0: 20c3 293e 613d 8bba 9ec6 4ebc 379a 6c3d
00000300: d58d d83b 4d2b 393e ca29 c13c d580 bb3d
00000310: 201f 6d3d adf5 833d db5a 39be 4065 09be
00000320: a0cb b73b 1fc5 d43c 9967 513e 3900 3a3e
00000330: 3163 35bd 4d4d 7fbd 3a0a 4ebc 414f 9e3d
00000340: a912 ec3c b8cf c23c 8515 de3d 9c5c 3b3c
00000350: 1d49 333e 6b44 a93d 43d0 2d3d b997 643e
00000360: e849 9cbd 7a0f 8b3d adc1 a13c 7dad a93c
00000370: 7626 5ebd 906b 473e 97f9 4d3d 8b04 3dbc
00000380: cc1a 02bd dab4 593d 20c2 1cbe 6e69 a1bd
00000390: 3317 b4bd 3766 4ebd 8d50 283c 56ba ebbd
000003a0: 2ecf f03d 45f4 85bc b67a d7bd 8071 afbc
000003b0: 4715 a73d fb28 edbc 89d7 453e fd4b 5dbd
000003c0: de71 233e 7204 ac3d 304c 94bd a80f 42be
000003d0: f946 f63d e1d7 69bc bace f33d 7da8 013e
000003e0: 2ed1 2ebd d27c 44bd deab 57bd 0bf2 91bd
000003f0: 2015 b63c fc4f 5b3d 77c5 84bd 855e 543e

net.3.weight f4 [256, 256]
0.032772005 0.048610993 -0.056589764 -0.042852934 0.14514403 0.061267145 0.00090881845 0.061336815
-0.017667279 -0.029533423 0.022095077 0.031998865 0.06655113 0.0941838 0.016492285 0.13795072
0.13832334 0.018845988 0.026839128 0.015323228 0.04406353 -0.00895739 0.037116535 -0.03570112
-0.02416435 0.09206086 -0.018437626 0.0003338315 0.03605516 -0.024988525 0.15320343 0.07116874
-0.029860042 0.033554133 -0.07069896 0.031348888 0.038720362 -0.06046142 0.038653962 0.023839023
-0.09261706 -0.0484844 0.009268237 0.102420814 -0.030193096 0.027024545 0.12083322 0.045744535
-0.07727668 0.017680421 0.029616136 0.05821253 -0.057449337 -0.084493175 -0.015585823 0.08074545
-0.02897628 0.10770497 -0.12765366 0.20184118 0.15959316 0.0016552592 0.16425665 0.016830621
-0.062542595 -0.009672639 0.06643133 0.07369937 -0.00065055816 0.051310398 -0.02811459 0.11761748
0.10887739 0.006130821 0.061934877 -0.008144427 0.05829057 0.0009945356 0.022308335 0.055314314
-0.21363737 -0.061468616 -0.05832931 -0.099766076 0.15757822 -0.0027710062 0.015934506 0.040705744
0.06726485 0.04818361 0.107241035 0.002945956 -0.056856073 0.09489941 -0.0016111457 -0.02889107
0.050048307 0.08433578 -0.0201238 -0.02841082 -0.06699234 0.12592344 0.007979652 -0.05300341
-0.0140488 -0.057073746 -0.04353767 -0.093472384 0.006963803 0.1252313 0.032346997 0.008486472
0.03858775 -0.12428862 0.009350434 -0.028449126 -0.012487699 0.020656241 -0.00030901027 0.09865343
0.021860708 -0.10775053 0.06295585 -0.060324676 0.11986002 0.069587305 0.011690967 -0.012714069
0.04494733 0.0063964995 -0.052822687 -0.044834975 -0.109605886 0.086441696 -0.04879904 0.049308654
-0.015426399 -0.008006269 0.14128432 0.03951715 -0.024239093 0.052450616 0.023763381 0.0811613
-0.15211882 0.0021373373 0.04185517 -0.031982187 -0.0054889116 0.055694126 -0.0664142 0.051536977
0.053820755 0.05150457 0.039547883 -0.06672767 0.080735914 0.04450964 0.012879544 0.012633727
-0.017958587 -0.06128589 0.041714344 0.081395425 -0.0911155 -0.113349415 -0.12531987 0.087193474
0.037172105 -0.036658924 -0.034347303 -0.034528784 0.114249386 0.08096364 0.05474177 0.04997722
0.06666199 0.061611157 0.14657436 -0.034660492 0.097208455 -0.05879194 0.02512634 0.07446074
-0.054693077 0.06509481 0.09609236 -0.016428972 0.12170433 -0.034250576 -0.0652874 0.04292873
0.0017674891 0.049464405 0.061660226 0.017839769 -0.017067477 0.04031687 -0.06930068 0.082929246
-0.09002752 0.065290764 0.033749357 0.0119062215 0.007990659 -0.039806865 -0.00031834547 0.08564184
-0.04080623 0.033749223 0.1339432 0.05084876 -0.005288603 0.007195436 -0.045607753 0.020025276
0.0036652633 0.001625148 -0.07170071 -0.05759975 -0.006315523 -0.0039929035 -0.032732714 0.07081509
-0.021933787 -0.048958052 -0.055959012 -0.02976134 0.048012525 -0.021412719 0.01722015 -0.12380105
0.029337186 0.026017755 -0.06478806 0.08600136 -0.07237893 0.07469883 0.032375507 0.055663817
0.04249119 -0.011628162 0.050749578 -0.07416209 0.009984419 -0.06409266 0.09231033 0.06971823
0.120734856 -0.058488004 -0.041865487 0.13377215 0.010997057 0.10200786 0.026587341 0.092610285
00000000: f03b 063d 521c 473d abca 67bd 8f86 2fbd
00000010: a3a0 143e 42f3 7a3d c63d 6e3a 503c 7b3d
00000020: f8ba 90bc 14f0 f1bc bc00 b53c 3e11 033d
00000030: f54b 883d 70e3 c03d d41a 873c f442 0d3e
00000040: a2a4 0d3e e762 9a3c bbdd db3c 470e 7b3c
00000050: f67b 343d 04c2 12bc 8207 183d 563b 12bd
00000060: 51f4 c5bc 678a bc3d 810a 97bc 1b06 af39
00000070: 93ae 133d bcb4 ccbc 5ce1 1c3e ebc0 913d
00000080: 0c9d f4bc 0f70 093d 9eca 90bd b167 003d
00000090: 3e99 1e3d 65a6 77bd 9e53 1e3d 0e4a c33c
000000a0: 03ae bdbd 9497 46bd ced9 173c 01c2 d13d
000000b0: 8357 f7bc 9462 dd3c 6877 f73d 9f5e 3b3d
000000c0: 3c43 9ebd 88d6 903c 8a9d f23c 4370 6e3d
000000d0: ff4f 6bbd c20a adbd ae5b 7fbc df5d a53d
000000e0: aa5f edbc 6c94 dc3d a4b7 02be 74af 4e3e
000000f0: 646c 233e 48f5 d83a e532 283e 5fe0 893c
00000100: 5516 80bd fd79 1ebc 260d 883d b2ef 963d
00000110: 388a 2aba da2a 523d 9250 e6bc 6fe1 f03d
00000120: 1cfb de3d 0ee5 c83b 6daf 7d3d 3470 05bc
00000130: 18c2 6e3d 145b 823a f8bf b63c 4391 623d
00000140: c1c3 5abe 84c6 7bbd b7ea 6ebd 2852 ccbd
00000150: 2f5c 213e c599 35bb 1589 823c 11bb 263d
00000160: 27c2 893d 2d5c 453d 30a1 db3d f110 413b
00000170: eae1 68bd 9f5a c23d 142d d3ba f7ac ecbc
00000180: 74ff 4c3d 3db8 ac3d abda a4bc cfbd e8bc
00000190: 4833 89bd 13f2 003e 16bd 023c 1b1a 59bd
000001a0: f02c 66bc 29c6 69bd 8e54 32bd 736e bfbd
000001b0: 9d30 e43b a23c 003e 497e 043d d80a 0b3c
000001c0: 300e 1e3d 088b febd 9032 193c 240e e9bc
000001d0: 3599 4cbc 4737 a93c a802 a2b9 cf0a ca3d
000001e0: 3a15 b33c 4fac dcbd ffee 803d 0217 77bd
000001f0: 2c79 f53d ca83 8e3d 788b 3f3c ac4e 50bc
00000200: b11a 383d ba99 d13b 9a5c 58bd e1a4 37bd
00000210: 0d79 e0bd 5808 b13d 81e1 47bd dff7 493d
00000220: 02bf 7cbc ba2c 03bc d6ac 103e bcdc 213d
00000230: 1091 c6bc 75d6 563d 6cab c23c e537 a63d
00000240: 09c5 1bbe 9212 0c3b 5470 2b3d c1ff 02bd
00000250: 54dc b3bb 861f 643d 2b04 88bd 7018 533d
00000260: 2773 5c3d 75f6 523d f6fc 213d 84a8 88bd
00000270: df58 a53d be4f 363d b904 533c b1fd 4e3c
00000280: e31d 93bc ea06 7bbd a9dc 2a3d a5b2 a63d
00000290: c39a babd bd23 e8bd da53 00be 7e92 b23d
000002a0: c741 183d ab27 16bd c2af 0cbd 0e6e 0dbd
000002b0: 95fb e93d 44d0 a53d e838 603d eab4 4c3d
000002c0: 1586 883d fb5b 7c3d 9717 163e 29f8 0dbd
000002d0: 3a15 c73d d1cf 70bd c1d5 cd3c df7e 983d
000002e0: d905 60bd 6e50 853d 12cc c43d 0d96 86bc
000002f0: 1f40 f93d 554a 0cbd 66b5 85bd 09d6 2f3d
00000300: 18ab e73a 309b 4a3d 6f8f 7c3d b524 923c
00000310: 18d1 8bbc 4d23 253d 84ed 8dbd cfd6 a93d
00000320: 5960 b8bd 2ab7 853d c43c 0a3d 5012 433c
00000330: 41eb 023c 860c 23bd 9be7 a6b9 fd64 af3d
00000340: 6f24 27bd a03c 0a3d 6828 093e ca46 503d
00000350: 044c adbb b1c7 eb3b 32cf 3abd 0c0c a43c
00000360: ea34 703b eb02 d53a d2d7 92bd b7ed 6bbd
00000370: 72f2 cebb e7d6 82bb bd12 06bd 8007 913d
00000380: 7cae b3bc 3d88 48bd 4735 65bd 0ece f3bc
00000390: c8a8 443d ba69 afbc 4611 8d3c 688b fdbd
000003a0: 8a54 f03c 3023 d53c 9aaf 84bd 7b21 b03d
000003b0: 683b 94bd b3fb 983d 2e9c 043d beff 633d
000003c0: 3e0b 2e3d 0c84 3ebc cade 4f3d 4be2 97bd
000003d0: b095 233c 0343 83bd 330d bd3d 6ec8 8e3d
000003e0: d643 f73d 1e91 6fbd 257b 2bbd 91fb 083e
000003f0: 002d 343c 7fe9 d03d b2cd d93c 76aa bd3d

net.3.bias f4 [256]
0.0041820058 0.043120887 -0.043597553 0.077861875 0.01023054 0.010877193 0.0057156496 0.057261344
-0.02872922 -0.002403366 0.04565605 -0.008918996 -0.0062689376 0.11008105 0.099091955 0.059770603
-0.032783523 -0.008830275 0.039665017 0.020645078 -0.03534575 0.002272058 0.017753791 -0.0063670194
0.08722136 -0.019716686 0.014656326 -0.025522696 -0.09112163 -0.0053857076 0.019823011 0.07261234
0.024391051 -0.035243962 0.13188335 0.0469076 -0.008535361 0.06505419 0.08134638 0.040655848
-0.051646113 -0.06773288 -0.0021462366 -0.059940312 0.01591712 0.063450634 -0.05934711 -0.03804595
0.043097857 0.0102536045 -0.04308518 0.07614989 0.118262134 0.08096004 -0.0017273733 0.03905162
0.0531844 0.03636768 0.11933166 -0.08050128 -0.010581995 -0.063801765 0.044727568 0.022236519
0.03544619 0.024332128 -0.047733434 0.11443849 0.079694286 0.10505547 0.09928806 0.08027997
0.12209652 0.0014347688 -0.00840076 0.008256236 0.07307695 0.004756668 0.005882157 0.009281386
0.054780073 -0.04004623 0.05739307 0.041218422 -0.076324664 0.079710096 0.037804306 -0.09483236
-0.034892097 -0.0847077 0.14206219 0.1182556 -0.10520516 -0.015822329 -0.018987084 0.0489422
-0.019596675 0.053253975 -0.01679035 0.160187 0.07437572 -0.0031625328 -0.072337136 0.07374191
0.03943526 -0.017237648 0.02380424 -0.084524676 -0.0018620798 -0.013703781 0.091935806 0.005270049
0.099160224 0.06961331 0.10847928 0.05149421 0.04610193 0.12539965 0.06653667 -0.013627648
0.085283846 -0.05827093 0.028562281 0.06351535 -0.13691163 -0.011964002 0.104467556 -0.05701147
-0.059560556 -0.02312587 0.113299675 -0.056313537 0.084815174 0.07685323 -0.008505525 -0.016797138
0.08363151 0.04409501 0.00065458135 0.0003395249 -0.032770682 0.06297629 0.04189575 -0.025648387
0.044772923 0.060675073 -0.077644035 -0.10269094 0.016368369 0.11300013 0.07679012 0.0512229
0.035678074 0.14296584 0.08264956 0.03922815 0.027862368 0.092916586 -0.07072033 -0.015570544
0.08667345 0.038095508 0.037432358 -0.0013352929 0.044355527 0.07213396 0.026738543 0.010513824
0.022467796 -0.079935946 0.06221838 0.036425278 -0.031585485 0.06012266 0.06634395 -0.03620136
-0.07698164 -0.009448545 0.07881181 -0.057251487 -0.06877363 0.08591742 -0.006043852 0.07847053
0.029609192 -0.095143035 -0.074642405 -0.06131302 -0.062007017 0.0315005 0.020184347 0.057352196
-0.04660166 -0.0778521 0.056216933 -0.0072453786 0.0099662095 0.039533596 0.048491556 0.0344835
0.0112465555 0.062419794 0.017493544 -0.03508176 0.0345434 0.08112831 0.035906132 0.067440815
0.0073180026 0.055132613 -0.01289432 0.010531044 0.052123476 -0.02668263 0.08269417 0.02776946
0.036022548 -0.038700394 0.10470934 -0.015215198 0.1349055 0.05723122 0.042113278 0.032339565
0.073683165 -0.026901895 0.12023549 -0.072773956 0.03558424 0.11704451 0.009311384 0.033617523
-0.015206701 -0.06757129 0.15961173 -0.0418993 -0.073689036 -0.03420028 0.040290527 -0.01691224
0.10129584 -0.07768573 0.047316305 0.024856068 0.026548333 0.02052879 -0.043224808 0.06116335
0.013542232 0.0599188 -0.019467348 -0.07215863 -0.023072504 0.06489062 -0.04024597 0.09378509
00000000: 3509 893b 879f 303d 5993 32bd 0c76 9f3d
00000010: ff9d 273c 4136 323c 584a bb3b df8a 6a3d
00000020: 8b59 ebbc ca81 1dbb d701 3b3d fb20 12bc
00000030: a96b cdbb 2c72 e13d b9f0 ca3d 05d2 743d
00000040: 0448 06bd dcac 10bc c977 223d de1f a93c
00000050: b5c6 10bd cfe6 143b 6670 913c 6ea2 d0bb
00000060: 1da1 b23d e384 a1bc 1621 703c f914 d1bc
00000070: fa9d babd 977a b0bb de63 a23c c7b5 943d
00000080: becf c73c f95b 10bd 6e0c 073e 2f22 403d
00000090: e6d7 0bbc 223b 853d ee98 a63d bf86 263d
000000a0: e08a 53bd 89b7 8abd e0a7 0cbb f983 75bd
000000b0: 9f64 823c 68f2 813d f515 73bd 12d6 1bbd
000000c0: 6187 303d bcfe 273c 167a 30bd 79f4 9b3d
000000d0: 6b33 f23d 61ce a53d 0869 e2ba 97f4 1f3d
000000e0: e3d7 593d 47f6 143d 2864 f43d dbdd a4bd
000000f0: 1b60 2dbc 80aa 82bd 4134 373d 5c29 b63c
00000100: 0630 113d 2c54 c73c 2284 43bd ba5e ea3d
00000110: c236 a33d 5227 d73d 8a57 cb3d d369 a43d
00000120: be0d fa3d da0e bc3a 57a3 09bc 2a45 073c
00000130: 5ea9 953d d3dd 9b3b 1cbf c03b f410 183c
00000140: 1261 603d 8407 24bd ff14 6b3d a6d4 283d
00000150: 1b50 9cbd 0c3f a33d b0d8 1a3d 7837 c2bd
00000160: 04eb 0ebd 3b7b adbd c078 113e fe2f f23d
00000170: ce75 d7bd d49d 81bc cd8a 9bbc 9e77 483d
00000180: 3589 a0bc d720 5a3d eb8b 89bc 1008 243e
00000190: 4c52 983d 7f42 4fbb 7e25 94bd 0006 973d
000001a0: de86 213d f835 8dbc 1c01 c33c 461b adbd
000001b0: 0811 f4ba d385 60bc d748 bc3d 60b0 ac3b
000001c0: 8414 cb3d 6c91 8e3d 622a de3d 98eb 523d
000001d0: 61d5 3c3d c468 003e 6144 883d 8046 5fbc
000001e0: 4ca9 ae3d 80ad 6ebd 72fb e93c 5614 823d
000001f0: 9032 0cbe a904 44bc 16f3 d53d dc84 69bd
00000200: c5f5 73bd 7772 bdbc a909 e83d 06a9 66bd
00000210: 94b3 ad3d 3a65 9d3d c25a 0bbc 279a 89bc
00000220: ff46 ab3d f89c 343d 3698 2b3a 4302 b239
00000230: 8d3a 06bd b7f9 803d e19a 2b3d 911c d2bc
00000240: d063 373d 6d86 783d d603 9fbd a14f d2bd
00000250: f516 863c 9d6c e73d 2344 9d3d 1bcf 513d
00000260: 2c23 123d a365 123e 2c44 a93d b2ad 203d
00000270: 9f3f e43c 0d4b be3d d2d5 90bd 981b 7fbc
00000280: da81 b13d 090a 1c3d ac52 193d ff04 afba
00000290: 24ae 353d f8ba 933d ca0a db3c 2d42 2c3c
000002a0: 620e b83c 75b5 a3bd b3d8 7e3d ac32 153d
000002b0: c85f 01bd 2e43 763d 56df 873d e147 14bd
000002c0: 8da8 9dbd 12ce 1abc 1668 a13d 8980 6abd
000002d0: 30d9 8cbd 79f5 af3d 810b c6bb 28b5 a03d
000002e0: fa8e f23c 5ada c2bd 1ede 98bd 5c23 7bbd
000002f0: 12fb 7dbd ab06 013d a559 a53c 23ea 6a3d
00000300: 62e1 3ebd ec70 9fbd ba43 663d a46a edbb
00000310: 5049 233c fbed 213d 159f 463d 923e 0d3d
00000320: 7943 383c e6ab 7f3d 9f4e 8f3c e4b1 0fbd
00000330: 617d 0d3d 9926 a63d 4f12 133d 691e 8a3d
00000340: dbcb ef3b bcd2 613d b342 53bc 668a 2c3c
00000350: 6d7f 553d 8895 dabc 905b a93d c77c e33c
00000360: 618c 133d 4e84 1ebd da71 d63d 2a49 79bc
00000370: ab24 0a3e 496b 6a3d f97e 2c3d 7e76 043d
00000380: 33e7 963d 5d61 dcbc 063e f63d 830a 95bd
00000390: c8c0 113d 08b5 ef3d c68e 183c 87b2 093d
000003a0: 8725 79bc d162 8abd 4271 233e 9a9e 2bbd
000003b0: 47ea 96bd 9815 0cbd ae07 253d 8a8b 8abc
000003c0: 3274 cf3d b219 9fbd bece 413d f49e cb3c
000003d0: e47b d93c fe2b a83c 7f0c 31bd 6c86 7a3d
000003e0: 3de0 5d3c 6a6d 753d fd79 9fbc e7c7 93bd
000003f0: 8c02 bdbc 60e5 843d f5d8 24bd 6612 c03d

net.6.weight f4 [36, 256]
0.046163008 0.008021906 0.022252463 -0.023200981 0.015097456 -0.056637548 0.02755276 -9.326884e-05
0.021925341 -0.06475441 0.04857265 0.043897443 0.055318523 0.021158723 -0.059559397 0.049200103
-0.047114994 0.011156005 -0.0033953635 0.01766669 -0.0348232 0.028896341 -0.024892692 0.0035715129
-0.06186036 -0.03862311 -0.0740724 -0.03975362 0.07254509 0.04444955 0.02722554 0.022029141
-0.04830439 0.02469843 -0.017404625 -0.07061714 -0.0018577034 0.041871417 -0.059446957 -0.08931219
0.030761905 0.03760273 -0.033249155 0.01103049 -0.023178821 -0.06527103 0.004005297 0.0057852096
-0.07010753 0.002148925 -0.0062914365 0.026196301 0.030321507 0.0019054104 -0.008164065 -0.012264276
0.025412904 -0.09086112 -0.08698162 0.030407894 0.029298874 -0.03403099 -0.016000906 -0.12145292
-0.072593346 0.060517386 0.026526116 -0.076605245 -0.019072214 0.022913562 -0.0076556606 0.040760674
-0.072292075 0.017984448 -0.018831218 -0.08523677 0.057413157 -0.109825134 -0.052923158 -0.033435
0.04739706 -0.057094973 -0.06374935 -0.11011732 0.05300406 -0.0791892 0.042057768 0.08318929
0.019944465 0.07414908 -0.035631046 -0.029801331 0.059372526 -0.00564527 0.004656013 -0.10885624
-0.025627863 -0.02683882 -0.06262844 -0.114169255 0.03212718 0.09027524 0.023148064 -0.06362492
-0.055949014 0.00392738 0.035582446 0.08869827 0.033936013 0.03605839 -0.055990435 -0.048544027
0.0032417527 -0.060314283 0.05304695 -0.09272155 -0.05245982 -0.015990222 -0.00573929 0.006721394
-0.16693047 0.011504239 0.025632124 0.009072934 0.071764566 -0.0014588203 -0.015716946 0.05527494
0.038139854 0.04192018 -0.06698359 -0.0074694906 0.031017529 -0.000291335 -0.023060452 0.047317546
-0.044334054 0.008048917 0.05152749 -0.020287428 -0.025274018 -0.013670556 0.039395954 -0.0466386
0.038594313 -0.023973351 0.00048568222 0.0764086 0.012970096 -0.009270708 -0.0104257045 0.02160627
-0.06040153 -0.14492013 -0.00056806026 -0.096946515 0.030546214 -0.053750638 0.03386829 -0.08689448
-0.013586207 -0.010474611 0.03370286 0.02855102 0.01433943 -0.031597655 -0.0035726274 -0.01214845
-0.09722068 0.010145218 0.058208343 0.02600951 0.022145068 -0.08101563 -0.035373904 0.04465534
0.038767952 0.0012926087 -0.21901156 -0.0128189325 0.021380281 -0.06478567 0.03219617 0.028019428
-0.13239953 0.076142184 -0.008676126 0.025370616 0.00258162 0.043795533 0.012297152 0.017953299
0.027181977 -0.041469272 0.024240818 -0.022545647 -0.0400636 -0.005299348 0.021434493 -0.031176273
0.0022189291 -0.027017655 0.0063182493 -0.04999111 0.00027327545 -0.01807068 -0.031798195 -0.055725586
-0.08222935 -0.06639543 0.005331478 0.026006479 -0.1120033 0.046618253 -0.07652124 -0.034688886
-0.014799589 -0.05191486 0.045603465 0.041044317 -0.09041443 -0.022996966 0.016153619 0.03507032
-0.095861755 0.035996035 -0.034674745 -0.065030046 0.057432253 -0.044583123 0.044359297 0.0071507264
0.025153128 -0.0391864 -0.09882794 -0.03897442 0.019152792 0.023591598 -0.051737882 -0.027015774
-0.017565986 0.01909631 -0.002302957 -0.018342119 0.005461333 -0.066863805 -0.011932901 -0.0010352037
0.06901089 -0.07232287 0.05908922 -0.07161271 0.050835647 -0.009357447 0.025268989 -0.0668932
00000000: 6c15 3d3d 506e 033c cc4a b63c fc0f bebc
00000010: 525b 773c c6fc 67bd 53b6 e13c 5499 c3b8
00000020: c69c b33c f69d 84bd 1df4 463d cecd 333d
00000030: ad95 623d 0f55 ad3c 8ef4 73bd 0c86 493d
00000040: a7fb 40bd adc7 363c bf84 5ebb bcb9 903c
00000050: c6a2 0ebd 05b8 ec3c c2eb cbbc 0b10 6a3b
00000060: 4a61 7dbd 4433 1ebd 45b3 97bd b1d4 22bd
00000070: 8592 943d bb10 363d 1808 df3c 7576 b43c
00000080: d3da 45bd 5d54 ca3c 2594 8ebc b89f 90bd
00000090: 2f7e f3ba 5d81 2b3d a77e 73bd 4fe9 b6bd
000000a0: 6400 fc3c 5205 1a3d 4430 08bd 3ab9 343c
000000b0: 83e1 bdbc d1ac 85bd de3e 833b db91 bd3b
000000c0: 8994 8fbd fbd4 0c3b 6528 cebb a099 d63c
000000d0: cf64 f83c f7be f93a 92c2 05bc 1af0 48bc
000000e0: b92e d03c 6515 babd 6b23 b2bd fa19 f93c
000000f0: 3104 f03c 1464 0bbd 5514 83bc 4fbc f8bd
00000100: d2ab 94bd 14e1 773d 4c4d d93c 36e3 9cbd
00000110: 553d 9cbc 39b5 bb3c 56dc fabb aaf4 263d
00000120: de0d 94bd 1f54 933c ed43 9abc 9e90 aebd
00000130: 0f2a 6b3d 00ec e0bd f4c5 58bd 23f3 08bd
00000140: 6b23 423d 6bdc 69bd 058f 82bd 3185 e1bd
00000150: c91a 593d f32d a2bd c444 2c3d 255f aa3d
00000160: 9362 a33c 79db 973d dcf1 11bd ec21 f4bc
00000170: 9b30 733d f5fb b8bb 7891 983b 05f0 debd
00000180: 86f1 d1bc 16dd dbbc 5743 80bd 92d1 e9bd
00000190: ca97 033d 3ae2 b83d 02a1 bd3c c84d 82bd
000001a0: cb2a 65bd 40b1 803b e6be 113d 70a7 b53d
000001b0: 7d00 0b3d f6b1 133d 3a56 65bd 1ad6 46bd
000001c0: 9673 543b 1c0c 77bd c247 593d cce4 bdbd
000001d0: 1ce0 56bd edfd 82bc a710 bcbb 243f dc3b
000001e0: d2ef 2abe 477c 3c3c 76fa d13c a5a6 143c
000001f0: 4df9 923d e335 bfba d3c0 80bc fa67 623d
00000200: 8938 1c3d 7fb4 2b3d b12e 89bd a1c2 f4bb
00000210: 7918 fe3c 52be 98b9 46e9 bcbc 0bd0 413d
00000220: a097 35bd 9bdf 033c 7d0e 533d d231 a6bc
00000230: 750b cfbc 78fa 5fbc a75d 213d 1e08 3fbd
00000240: 1215 1e3d c363 c4bc 2aa3 fe39 1d7c 9c3d
00000250: 8780 543c 2be4 17bc 93d0 2abc a2ff b03c
00000260: 9867 77bd f165 14be e1e9 14ba e58b c6bd
00000270: 0e3c fa3c a129 5cbd 7ab9 0a3d bcf5 b1bd
00000280: af98 5ebc b49d 2bbc 030c 0a3d d4e3 e93c
00000290: eeef 6a3c 8b6c 01bd be22 6abb 4b0a 47bc
000002a0: a31b c7bd 2138 263c df6b 6e3d e511 d53c
000002b0: 9369 b53c 86eb a5bd 3ae4 10bd 85e8 363d
000002c0: 25cb 1e3d c06c a93a 9144 60be 8006 52bc
000002d0: b325 af3c 59ae 84bd 22e0 033d 0089 e53c
000002e0: be93 07be 6ff0 9b3d 4f26 0ebc 0ad6 cf3c
000002f0: 6530 293b f262 333d fe79 493c cc12 933c
00000300: bdac de3c afdb 29bd ae94 c63c a6b1 b8bc
00000310: bb19 24bd 27a6 adbb 6497 af3c 6265 ffbc
00000320: 746b 113b 2154 ddbc 5109 cf3b 7ac3 4cbd
00000330: 6946 8f39 f608 94bc d33e 02bd 8340 64bd
00000340: dd67 a8bd 54fa 87bd aeb3 ae3b 8a0b d53c
00000350: fc61 e5bd c8f2 3e3d 2bb7 9cbd ef15 0ebd
00000360: fa79 72bc ada4 54bd b3ca 3a3d 161e 283d
00000370: 332b b9bd 2264 bcbc 9854 843c e5a5 0f3d
00000380: 2b53 c4bd 9470 133d 1b07 0ebd 792e 85bd
00000390: 153e 6b3d cb9c 36bd 18b2 353d a450 ea3b
000003a0: ef0d ce3c eb81 20bd 4e66 cabd a4a3 1fbd
000003b0: 51e6 9c3c 2b43 c13c 1aeb 53bd 2f50 ddbc
000003c0: 8be6 8fbc dd6f 9c3c 35ed 16bb 3642 96bc
000003d0: fbf4 b23b e4ef 88bd 3782 43bc acaf 87ba
000003e0: 9555 8d3d 031e 94bd 8a07 723d afa9 92bd
000003f0: 0a39 503d fa4f 19bc e900 cf3c 4dff 88bd

net.6.bias f4 [36]
-0.030496899 0.08045632 0.062665686 -0.06354402 0.028993398 -0.05861112 0.0146931205 0.052131105
0.0039743097 0.05407725 0.12979586 0.014653275 -0.15246427 0.10500506 0.117421955 -0.00092823495
0.020978266 -0.047930297 0.096807264 0.05080905 0.0740305 -0.03697315 0.08092537 -0.017736789
-0.08739462 -0.06483378 -0.06915583 0.014476847 0.011037807 0.11786655 0.07623048 0.00716775
0.013177247 0.10057377 -0.011061859 0.056761485
00000000: a2d4 f9bc 48c6 a43d de56 803d 5e23 82bd
00000010: 9083 ed3c 3712 70bd 6abb 703c 6d87 553d
00000020: ed3a 823b 1b80 5d3d 35e9 043e 4a14 703c
00000030: 981f 1cbe e50c d73d ec7a f03d cb54 73ba
00000040: 9dda ab3c 8f52 44bd e342 c63d 271d 503d
00000050: 4e9d 973d 2871 17bd 33bc a53d be4c 91bc
00000060: f3fb b2bd 93c7 84bd 92a1 8dbd 4c30 6d3c
00000070: ebd7 343c 0564 f13d ba1e 9c3d 72df ea3b
00000080: 61e5 573c 9ff9 cd3d cd3c 35bc bb7e 683d
