notebooks/alphabet/asl_model/models/hand_gesture_model.pth (torch, 367833 bytes, 6 tensors)

0.weight f4 [256, 63]
00000000: 4062 66ba d38c 2d3e af54 383e 41b4 67bd
00000010: 4f47 613e 01ed 0fbe c925 afbd 968a 723e
00000020: f89c 64be d81e 863d 0502 483e 6d14 0abe
00000030: 865a 7e3d 78e9 973e bbcc 1fbe 98c8 dabd
00000040: 328b 513e 9472 bdbe 114d 803d 5ee3 383d
00000050: 5a76 423d d813 98bd 3481 a4be f420 1ebb
00000060: 64d1 ca3d f1a1 fdbe a8b5 38bc 7638 51bd
00000070: a7a4 1f3d d5d0 d2be 3be4 f03d 2f89 cf3d
00000080: ccec 5bbe 8e32 923d 36d8 813e 7923 86bd
00000090: 75e4 bdbc 8886 7d3e cb92 f5bd bd1d 8d3d
000000a0: b73e 7b3d 3e81 b7be 01c5 03bd 5db2 f13d
000000b0: 7206 cb3a a43f f3bd afd4 40be 085d 4f3e
000000c0: 4a9e 1abd d6d1 83bd 4b9a 9ebc a546 a63d
000000d0: 3589 44bd 326e 60be d89c f5bd 21e8 e8bc
000000e0: 6ae3 c1bb 8267 1bbe 4aff 03be 2048 f0bc
000000f0: 0523 82be 4f7b 77be 18ed 1cbc 6011 d3bb
00000100: 55b5 ccbd 2e3d 17be cc5e d03d 8777 14bd
00000110: e6a8 0d3d 10f5 9a3d fd06 0f3e 7187 ad3d
00000120: e627 42be 9c37 db3d f757 863d a428 adbe
00000130: 15ce 1b3d dd50 5d3c f3d8 fb3d 5190 8e3d
00000140: 9dca 093e bdde 713d c684 1e3e 954b 1d3e
00000150: b5dd ab3c a4a7 3abd 77bf 6ebc 79e4 0cbe
00000160: 66ba eb3d caf4 c4bd a6de 003c 38b2 c53d
00000170: 14ae b63d 6619 333e f23d 2dbd 3eb7 07be
00000180: 266d 123e 6ccb 843e 8502 40be b6b6 123e
00000190: ff85 963e b0d0 3abc 3560 b53d 92e3 e23c
000001a0: baea 8f3d ed24 d83c 2306 11bc 78a0 9d3d
000001b0: 32ce 293e f7f8 f9bd 3f32 123e 176c afbc
000001c0: 2fbc 21be 72f2 f53d 9628 333e c8c0 113d
000001d0: 9fc6 cbbd c0ba 463e e91e bcbd 1e95 7a3e
000001e0: aaf4 ef3d ff4c 55be aafe b03d 57a3 5f3d
000001f0: 70b7 75be c404 ccbc 53b1 4d3e d272 a6bd
00000200: 652d 6fbe 1bb9 3e3e 5c17 c3bd 02ae 30be
00000210: 2894 783d 7865 44be 2e83 b7bd c7b7 edbb
00000220: 2dbd 17be 0d09 013d 8386 b7bd 1bbc acbe
00000230: 4b59 0dbe 3c73 ac3c 5807 cbbd b450 963d
00000240: 6ad6 e2bd 4681 0dbe c021 42be 6c7b 46bc
00000250: 494a 01be 8f47 dabd 7865 e5bd 4141 7d3c
00000260: 9234 39be f63b 953c c3a6 a8bc 11bf b03d
00000270: 41d8 143d 67bd b13d 401b 57be a6db 183d
00000280: 29e4 023d 9dd3 23be b772 f63d a8b0 063e
00000290: b305 bf3c 595d 4ebc 3ca3 a53d cda5 f63d
000002a0: 688a c2bd 8003 abbd 99e3 29be f71c 023e
000002b0: 8e78 ff3d f0dd aa3c 9869 073e 71ac a73c
000002c0: be3d 4d3e 5716 bc3c b2ff 7f3d cbaf 82bd
000002d0: d71e d6bd 3030 203d e2b0 1bbe 92f8 9f3d
000002e0: fc8b 203e 3e2b b4bd 2028 ef3d 7e70 853e
000002f0: 8fdb 593e b655 a8bd 0856 2b3c 3678 c53e
00000300: b2cb 93bd 098a df3d 0949 08be d008 bb3d
00000310: 8317 d03d 39e2 753c 44c1 cdbd 7e42 0d3e
00000320: e10b bbbd 6852 233d 8982 283e 2180 b83d
00000330: 8ec4 dbbd b5ba 533c 7faa 8bbe bd58 3a3c
00000340: 4b72 463e 5362 033e 5ec0 f43d 9c12 15be
00000350: a821 623e 5157 fd3d bfb8 cbbe ac01 7d3e
00000360: 1ea8 643d 6f58 113d 364f a4be 9775 cdbc
00000370: 5ec9 233e e5de cebc 17e1 4fbe b09f 16be
00000380: 58c7 3fbc f12f 6bbe 8172 3bbd b9da 903c
00000390: f3fe 4ebd ff13 c0bc 028a 483d 38f6 333d
000003a0: 6a1a 473e d64b 703d a0a5 253d caa3 1c3c
000003b0: 6f7a 393d 9584 92bd 9fcc 0b3e 0438 5bbd
000003c0: 4a23 80bd 9246 513d c923 653c 9f8e 6cbc
000003d0: ec2a 3d3e 3217 06be 48ee c8bd 6fca 0a3e
000003e0: 9836 1fbd 221a 1a3d 6978 8f3e 67dd 7cbd
000003f0: e994 27be a65d d2bd 618c 4b3e 82e9 00be
-0.0008788444 0.16948251 0.18001054 -0.056568388 0.21999858 -0.14055254 -0.08552129 0.23685679
-0.22325504 0.06548852 0.1953202 -0.13484354 0.06209805 0.2967031 -0.15605442 -0.106827915
0.20463255 -0.3700148 0.06264699 0.04513871 0.04747615 -0.0742566 -0.32129824 -0.0024128528
0.09903219 -0.49537614 -0.011273779 -0.051079236 0.038975384 -0.4117495 0.117622815 0.101335876
-0.2147705 0.07138549 0.25360268 -0.065497346 -0.023180226 0.24758351 -0.11990889 0.06890438
0.061339106 -0.3584079 -0.0321703 0.11801598 0.0015489592 -0.11877373 -0.18831132 0.20250332
-0.037748612 -0.064365074 -0.019360682 0.08118943 -0.047982413 -0.21917036 -0.11992806 -0.028431
-0.0059170024 -0.15176204 -0.12890354 -0.029331267 -0.25417343 -0.24168132 -0.009578012 -0.0064412802
-0.09995524 -0.14769432 0.10174331 -0.036246803 0.034584902 0.07566273 0.1396751 0.08473099
-0.18960533 0.10703966 0.06559747 -0.3382007 0.038038332 0.013508049 0.12297239 0.0696112
0.13456197 0.05905031 0.15480337 0.15360864 0.020979742 -0.04557003 -0.014572016 -0.1375903
0.11510162 -0.09617002 0.0078655835 0.09653133 0.089199215 0.17490157 -0.042295404 -0.13253495
0.1429945 0.2593645 -0.18750961 0.14327511 0.29399106 -0.011402294 0.08856241 0.027696405
0.070271924 0.026384795 -0.008851561 0.076966226 0.16582564 -0.122056894 0.1427698 -0.021413846
-0.15794443 0.120091334 0.17495951 0.03558424 -0.09949993 0.19407177 -0.09185583 0.24470946
0.11716588 -0.20830153 0.08642323 0.054599132 -0.23995757 -0.024904616 0.20087175 -0.08127369
-0.2335716 0.186253 -0.0952594 -0.17253879 0.060688168 -0.19179332 -0.089605674 -0.007254574
-0.14818259 0.031502772 -0.08961203 -0.33737263 -0.13803594 0.021051042 -0.0991351 0.07339612
-0.110760525 -0.13818845 -0.18958187 -0.012114387 -0.12625994 -0.1065818 -0.11200994 0.015457452
-0.1808646 0.018217068 -0.02058733 0.08630193 0.03633905 0.08678704 -0.21006489 0.037318848
0.03195587 -0.15998693 0.12033599 0.13153327 0.023318147 -0.012595498 0.08087775 0.12043343
-0.09499055 -0.08350277 -0.16590728 0.12706362 0.12474166 0.020857781 0.13223875 0.020467969
0.20043084 0.022959871 0.06249971 -0.06381186 -0.10455101 0.039108455 -0.15204194 0.07811083
0.156784 -0.0879731 0.11677575 0.26062387 0.21275161 -0.08219473 0.010457523 0.38568276
-0.07216586 0.10915 -0.1330911 0.0913254 0.101607345 0.015007549 -0.10046628 0.13794896
-0.09133125 0.03987351 0.16456045 0.09008814 -0.10730849 0.012922932 -0.27278516 0.011373696
0.19379537 0.12830476 0.11950754 -0.1455788 0.22083151 0.1237017 -0.39789388 0.24707669
0.05582439 0.035484727 -0.32091683 -0.025080485 0.15994784 -0.025252769 -0.20300709 -0.14709353
-0.011705242 -0.22967507 -0.045763496 0.01768242 -0.050536107 -0.023447035 0.04895974 0.043935984
0.1944367 0.058666073 0.040441155 0.009560535 0.045282777 -0.07154194 0.13652276 -0.053520218
-0.06256731 0.05109269 0.013985583 -0.0144383 0.18473405 -0.13094786 -0.098110735 0.13553785
-0.038870424 0.03762258 0.28021553 -0.061734583 -0.16365398 -0.10271768 0.19877769 -0.12589076

0.bias f4 [256]
00000000: 6667 12be 9500 9ebd 7829 3cbd 071c 143d
00000010: 7c84 d63d 6372 f8bd 1d5a babc ded7 353b
00000020: aff0 04bd 0091 0b3e 6486 963d 4a42 c9bc
00000030: 7e07 eabc 01fc f83c 4853 8fba e200 b7bd
00000040: 5f09 e43b 95c5 d93d c63e f2bd 0109 58bd
00000050: 2d58 993c 4f60 80bd f1fa 643d f965 b0bd
00000060: 6ae2 97bd ba70 f23b e5c8 7fbc ace4 3dbd
00000070: 185b b53b 7d80 403d bc35 e93d 3b1c a83d
00000080: 5d97 353d 8961 1abd 389a 113e 12db 94bc
00000090: 2785 093d b8fd 813d c6e0 a13d 8b23 8ebd
000000a0: 5b22 28bd dd13 a4bd 1ed6 5a3d 0d45 c1bd
000000b0: 3bac 483d 8576 eabd b874 6539 c132 163d
000000c0: 060c aa3d 186a d5bd 89d5 7abd 17be 1b3d
000000d0: 8706 e73d 35e4 9f3d 14fe 95bd 2bca c93a
000000e0: c4c6 7c3c bf6a 103b bebb 083e 55cc cebc
000000f0: fa9f 1fbc 60e3 aa3d e1aa ab3d b3f7 d93d
00000100: 82e5 e8bd 25b9 abbd e30a 9cbd 081a 1f3d
00000110: 3756 5bbd a175 acbd 69d8 683d c157 a0bd
00000120: f320 ab3d 6c95 c03d 20c2 a03d 3de9 bfbd
00000130: dfd7 e9bc 5cb0 4b3d ef04 5abd 3733 d13d
00000140: f631 92bd 5826 6b3d 55d4 023e fc26 adbc
00000150: f1fb dd3d 39b5 a53d c12f 873d 6291 d63d
00000160: e38f c03d 488e d23c 5294 2dbd 46d3 3abb
00000170: 779a a8bd a42a 0abd 44ea 923d 8ac5 7e3c
00000180: b177 e6bd c106 fbbc b316 4c3d e0b4 25bd
00000190: a09e 91bc 19ce 93bb 8f79 19bb 4876 bc3c
000001a0: 2e7d c23d cb35 97bc f5aa 1d3d e2a9 2abc
000001b0: afa2 443d f2d7 23bd 28af e83d 37f4 223c
000001c0: fa13 8f3d 301a cdbd 4785 653d 97be 8f3d
000001d0: ba4e 47bd 02ab 173e 38f9 01bd 5651 36bd
000001e0: c146 cebd b81c 463d 8f6e bdbd 58dd 663d
000001f0: ad2f c33d 3595 32bd 89eb ff3d 0d78 3d3b
00000200: db2c cbbc 5681 0a3e 13bf 963d eedf 0c3e
00000210: c953 bf3c 4a6c f8bd 58eb 633b bed1 9f3d
00000220: 9788 8e3d f0fc de3b 099d fe3c 3e2c 913d
00000230: f927 07be 47b2 ab3c 5c3a d5bd 7223 933d
00000240: 318d b2bd 1874 a9bd 220b f5bd 26a1 613d
00000250: a90e 6cbd 519c 9b3d b910 92bd 0698 db3d
00000260: d398 1a3b d5a4 c53d df01 c53c 3352 62bd
00000270: 7708 1a3a 7f13 993d 74bb 7dbb fce0 803d
00000280: 4a35 bdbd 1e11 cfbd 1ac5 073d 41ad 6d3d
00000290: 22db 1f3e d6cd 633d efb7 e2bd 8e52 7d3d
000002a0: 0b18 393d 3d91 833d 4fcd e4bd 63c5 093d
000002b0: fa0e 9a3d f67d d9bc 146f e9bc 0693 573d
000002c0: d2d9 853d 2e18 c43d 76e4 6ebd 4866 c53c
000002d0: 7ee1 61bd b725 bc3d e58b 7e3d 4c1c f83b
000002e0: b0dc c3bd 9cf0 cdbd 1f82 ea3d ed3c ed3d
000002f0: 9278 ecbd 7803 1bbd af32 72bd c906 4c3c
00000300: dc9a 65bd ef2b 263d 9749 073e 0285 f33d
00000310: 5553 8fbd e359 cb3d 407c bcbd 14fd 973c
00000320: 4a97 9dbd 38bc 1d3d 2f2b 803d 1ef0 a63d
00000330: 1130 b0bd 2702 21bd 1839 d73d e4cc ae3d
00000340: 42a7 a13d 4989 47bd 307e 8ebc b2c5 b9bd
00000350: dc7a c9bd b3df a6bd 3667 823d 01b9 b53d
00000360: 264c 39bd 9e81 87bd 6851 e1bd 4cd6 bb3d
00000370: 3a3a dc3d 1a9a d0bc 9489 85bd 2b92 dfbd
00000380: e851 c5bd 85ff 08bd 2fea 613d c745 0e3d
00000390: c76c bdbd 7237 a4bc 5738 013e 2b05 273c
000003a0: 1816 09bd cba3 77bd 0529 abbd 2916 9bbb
000003b0: 3f88 2cbd 9c74 3ebd 69df bfbc f2e7 cabd
000003c0: efee f83d 48a3 a63d 7aff bbbd 51de e4bd
000003d0: d2d3 cabd fad8 083e 0307 5abd 992a d3bd
000003e0: 253e 93bc 0cd1 f13d 783c f7bc e053 f73d
000003f0: afb9 7bbd cd06 723d 32c7 6cbd 0482 b4bd
-0.14297256 -0.07714955 -0.045937985 0.03615954 0.10474488 -0.121311925 -0.022748047 0.0027747075
-0.032456096 0.13629532 0.07349852 -0.024567742 -0.028568026 0.030393602 -0.0010934854 -0.08935715
0.006959125 0.10633389 -0.11828379 -0.05274296 0.018718803 -0.062683694 0.05590338 -0.086132
-0.07416232 0.007398692 -0.015611862 -0.046360657 0.005534541 0.046997536 0.11387202 0.082085095
0.044333804 -0.037690673 0.14218986 -0.018170867 0.03357425 0.06347221 0.079042 -0.06940373
-0.04104839 -0.08011601 0.053426854 -0.094369985 0.048992377 -0.11448387 0.00021882623 0.036669496
0.083030745 -0.104206264 -0.0612388 0.03802308 0.11280542 0.07807199 -0.07323852 0.0015395334
0.015428249 0.0022036282 0.13352868 -0.025243917 -0.009742731 0.083441496 0.08382202 0.10642948
-0.113719 -0.08384923 -0.07619264 0.038843185 -0.053549018 -0.084208734 0.05684701 -0.07829238
0.08355894 0.094035 0.078495264 -0.093706585 -0.028545318 0.049728736 -0.05322736 0.102148466
-0.071384355 0.057409614 0.1277631 -0.021136753 0.1083907 0.08091206 0.06600905 0.10476948
0.09402444 0.02570261 -0.042377777 -0.0028507276 -0.08232587 -0.03373207 0.07173589 0.015550027
-0.11253298 -0.030642869 0.049826335 -0.0404557 -0.017775834 -0.0045106527 -0.0023418402 0.02300562
0.094965324 -0.018458268 0.038493115 -0.01041648 0.04800671 -0.040000863 0.113615334 0.009945921
0.06986232 -0.100147605 0.056035306 0.07018774 -0.048659064 0.14811328 -0.031731814 -0.04451116
-0.10072089 0.048367232 -0.09249603 0.056363434 0.09530578 -0.043599326 0.12496097 0.0028910667
-0.024801662 0.135259 0.07360663 0.13757297 0.023355382 -0.121300295 0.0034777727 0.07803677
0.06959646 0.006805055 0.03108074 0.07088517 -0.13198842 0.020959033 -0.10411522 0.07184495
-0.087183364 -0.08274096 -0.11965014 0.055085324 -0.05763117 0.07598174 -0.07132096 0.107223555
0.0023589625 0.0965058 0.024048744 -0.055254173 0.0005875895 0.07474422 -0.0038716467 0.06292912
-0.0923868 -0.10110687 0.033146955 0.058026556 0.15610936 0.055616222 -0.11070239 0.06184631
0.045188945 0.064241864 -0.11171972 0.03363551 0.07522388 -0.02654932 -0.028495349 0.052630447
0.065356866 0.095749244 -0.058323346 0.024096623 -0.055146687 0.09186881 0.062145133 0.0075717326
-0.09563577 -0.10055658 0.114506 0.11583886 -0.115464345 -0.037845105 -0.059130367 0.01245279
-0.05605589 0.040569242 0.13211666 0.118906036 -0.06998316 0.09929254 -0.09203386 0.018553294
-0.07694872 0.038509578 0.062582366 0.081512675 -0.08602918 -0.039308693 0.10508937 0.085351735
0.0789323 -0.04871491 -0.017394155 -0.090709105 -0.09837887 -0.08148136 0.06367342 0.08873177
-0.045238636 -0.066165194 -0.11001855 0.09171733 0.10753293 -0.025464106 -0.065203816 -0.10916551
-0.09634763 -0.033446807 0.055154976 0.034734514 -0.09249263 -0.02004597 0.12619148 0.010194103
-0.033468336 -0.06045894 -0.08357433 -0.0047328663 -0.042122122 -0.046497926 -0.02342196 -0.09907521
0.12154948 0.08136612 -0.09179588 -0.11175216 -0.09903683 0.1336402 -0.053229343 -0.10310859
-0.017973969 0.11807451 -0.030180201 0.12076545 -0.06145638 0.059088517 -0.057807155 -0.08813861

3.weight f4 [256, 256]
00000000: 2503 c13d 51f0 1a3d 1987 36bd 1421 adbd
00000010: 8bf9 1abc 07cf 00be 49d9 2d3e d898 15bd
00000020: 089b 4c3d 03e4 cf3c 2494 a03c c6f5 9fbd
00000030: 6eb1 373d 73c8 193e fb79 083e e7e5 c83b
00000040: 10f2 11bd 58c0 a73b 08d9 0e3c 6047 493d
00000050: 1e93 68bd fe97 393d cc85 1e3a 28d7 2e3c
00000060: 07b5 d0bc cf1c a5bd feba 703d 09e1 713c
00000070: 81fc 03be 3404 0e3e ffd8 b23c 0e49 433c
00000080: 3ac2 083c 9f7c 93bd 8a36 283e d0a1 97bc
00000090: a045 30bc dae2 233d 178f cbbd 3c90 e0bd
000000a0: 55ba cb3d 1075 633c 9319 57be 38e6 29bd
000000b0: 645b 4cbd 2639 3c3d 70f6 7b3c c32e 26bc
000000c0: 99a4 973d cda3 d3bd 73bd edbc cd16 2fba
000000d0: 5d48 6c3e b01f 663a da22 393d 5263 683d
000000e0: d9fa 5f3c 7722 0ebc 8723 463e ca62 8c3d
000000f0: 0bc0 353e 0b14 9cbb 99db 67bc e61c 4ebd
00000100: f216 b8bc 3b7f 223a e9b1 64be 4e2b 313d
00000110: fd30 463d 0893 14bc 6d41 00bd 5ac7 1c3e
00000120: 8201 f7bd ff3d 7bbd 355a 3a3d 13ef a83d
00000130: 1690 423d 3d02 b3bb 566d 72bd 3c9d 83bc
00000140: dfd6 493d ba3a 733d 1ae4 51bd 8aa7 903d
00000150: a337 603e 950e 883d 2c80 28be 09f5 fcbd
00000160: 8863 0e3d a704 803e d350 1d3d 6834 c43c
00000170: f303 8a3d d80a 70bc e2fd 393d 5e21 113e
00000180: ad7d 773c 8fae b03d c0eb ad3d 0c2f 6a3d
00000190: 1af8 303e 9a8b 09bd 9f35 c53a 3d5d 41bc
000001a0: f0e6 dd3c cc1e 903d 47e5 a13d 2001 0b3e
000001b0: 4156 033e c0f2 963d 347f 5cbc 9b03 4abe
000001c0: 6268 063e 0098 f5b9 7224 2f3d 8bbe 5cbd
000001d0: 47dd cbbc 592a 903e 19a1 3e3e 5a69 fdbc
000001e0: 686c 193c 806e 3ebb 1413 433e f484 9bbc
000001f0: 586f 49bd b97a 36be 6081 be3d c5bb 3c3e
00000200: cfb7 663e 5b32 803e 42a9 05bb d4ef eb3c
00000210: fc8b 7d3c e017 5a3d 3dda 0cbe 69e6 7a3c
00000220: e90f 213d dca7 c93e 9eeb 303d eae3 b43d
00000230: b201 51bd 656f 243e 98fe 883e 011b 053e
00000240: 2993 343e 7c6c 64bd 3cf9 57bd 599a 873d
00000250: c85c 793d 26b4 3dbd 771e 523d 34a5 4d3d
00000260: abde 8b3e 16af a53d f0e0 dabc 04dc 923b
00000270: c8df af3d 8386 b53d 563f ae3d 54f9 a7bc
00000280: 34d0 c8bc 34ad b3bc 6208 2b3e b260 76bc
00000290: 6ad3 f03d 58d4 8fbc 24af 553e 0549 5b3d
000002a0: d2a2 a93d af26 97bd 1795 9cbd 8fb2 0b3c
000002b0: 0021 2f3d b8f8 953d be53 07bd 73f9 a4bc
000002c0: b9e8 053d 19fc 11bd 3c64 733d 72c5 94bd
000002d0: 1068 78bd e25d edbd 21b9 f7bd caaa 033d
000002e0: bceb 94bc a8b8 77bc 0729 283d ab82 0e3e
000002f0: 8034 d73a c6b2 42bd c4bf d0bd e4eb 5dbd
00000300: e5a6 97bc 2de1 26bd 3cfa a53d 0f13 5f3d
00000310: 88ae 983c 8388 fcbd 5050 5cbd 3477 363d
00000320: d05a 7c3c 3543 913d 3f0d 7f3c e7a4 92bd
00000330: 44ff 93bc 17b8 443d 20f7 643d 3e91 153d
00000340: 9b62 2ebd 0e05 11be 2bff 093e d004 46bc
00000350: 66cf 30bd 4e14 bd3d 3428 40bc 3d36 953d
00000360: 10b3 6cbd 6a56 91bd 6ec4 473d 2ccd 7cb9
00000370: 8055 0b3c a26e 7c3e 9d32 88bc 5260 5cbd
00000380: f4ca 81bd afaf 333d 7cf0 8c3d 0f85 413d
00000390: 078d bebc e3e2 12be e27c 0e3d 9c12 5fbd
000003a0: fddb 863d 800d b4ba 8bce ffbd edd2 813d
000003b0: d738 c4bc 02bb b8bd 705d ca3b 16c2 b4bd
000003c0: 25f1 a73d b020 943c c0fe 7ebc a0f0 343c
000003d0: b6b9 15bd e7c4 313e 1890 cf3d 555d 173e
000003e0: 584d 5abc 4bbc b23c 3fdc 833c 7bfe 933d
000003f0: 2e71 1f3d c498 abbd ad06 28be 8897 88bc
0.09424428 0.03782684 -0.044562433 -0.08453575 -0.00945891 -0.12578975 0.16977419 -0.036522716
0.049952537 0.02537728 0.019601889 -0.078105494 0.044846945 0.15017872 0.13327782 0.006130922
-0.03563124 0.0051193647 0.0087187365 0.049140334 -0.056780927 0.045310967 0.0006047159 0.010671414
-0.025476946 -0.080621354 0.05877208 0.014763125 -0.12889291 0.13868791 0.021831987 0.011919273
0.0083470885 -0.07201504 0.16427055 -0.018509775 -0.010758787 0.040011264 -0.099394016 -0.109650105
0.099476494 0.01388289 -0.2100585 -0.04147932 -0.049891844 0.04595294 0.0153785795 -0.010142985
0.074044414 -0.10333977 -0.029021 -0.0006679118 0.2307448 0.00087785255 0.045199253 0.056735344
0.013670647 -0.008675209 0.1934949 0.0685478 0.1774904 -0.0047631315 -0.014151477 -0.05032053
-0.022471879 0.00061987684 -0.22333492 0.04325419 0.048386563 -0.009068258 -0.031312395 0.15310422
-0.120608345 -0.06133842 0.045496184 0.08248725 0.047500692 -0.0054629133 -0.059186302 -0.016066186
0.049277183 0.059382178 -0.051242925 0.070632055 0.21896224 0.06643406 -0.16455144 -0.12351424
0.03476289 0.2500355 0.038407158 0.02395077 0.067390345 -0.014651023 0.045408137 0.14172885
0.015105647 0.086270444 0.08492231 0.057173774 0.17282143 -0.0335804 0.0015045888 -0.011802015
0.027087659 0.07037124 0.07905059 0.13574648 0.12825872 0.0737052 -0.013458062 -0.19727938
0.13125756 -0.0004684329 0.042759366 -0.053892653 -0.024885787 0.2815731 0.18616141 -0.030934025
0.009364225 -0.0029057562 0.19050246 -0.018984295 -0.04917845 -0.17820252 0.0930202 0.18431003
0.22531055 0.25038418 -0.0020395075 0.028800882 0.015475269 0.053245425 -0.13755126 0.015313723
0.039321814 0.3938588 0.043193452 0.08832534 -0.051027007 0.16058119 0.2675674 0.12998582
0.17634262 -0.05576752 -0.052727923 0.06621236 0.0608795 -0.04631438 0.051298585 0.050206378
0.2731832 0.080900356 -0.026718587 0.0044817943 0.08587605 0.08863547 0.08508174 -0.020504631
-0.024513341 -0.021933176 0.16702417 -0.015037702 0.11759074 -0.017557308 0.20867592 0.053536434
0.08283009 -0.07380425 -0.07645624 0.008526458 0.04275608 0.0732283 -0.033038847 -0.020138478
0.032692645 -0.03564081 0.059421763 -0.07264222 -0.060646117 -0.11590172 -0.120958574 0.0321453
-0.018178813 -0.015119709 0.04105475 0.13917033 0.0016418844 -0.047533773 -0.101928264 -0.05418004
-0.018512199 -0.040742088 0.08104369 0.054461535 0.01863791 -0.12330725 -0.05378753 0.044547275
0.015402511 0.07092897 0.015567123 -0.07160359 -0.018066056 0.048027124 0.05589974 0.036515467
-0.042574506 -0.14162084 0.13476245 -0.012086108 -0.04316654 0.092323884 -0.011728335 0.07285736
-0.057787955 -0.0709656 0.048771314 -0.00024109025 0.0085042715 0.24651578 -0.016625697 -0.053802796
-0.06337538 0.043868717 0.06881806 0.047246035 -0.023260606 -0.14344363 0.034787066 -0.054461107
0.06584928 -0.0013736933 -0.12490567 0.06339059 -0.023952885 -0.09020044 0.0061756894 -0.088260815
0.082002915 0.018081993 -0.015563667 0.011043698 -0.03655406 0.17360269 0.101349056 0.14781697
-0.013324104 0.0218183 0.016096232 0.07226273 0.038926296 -0.08378747 -0.16408797 -0.016673818

3.bias f4 [256]
00000000: aa30 d03d 4e45 773d 8885 17bd f6bc e93c
00000010: 37bd 45bd 3e01 11bd f9ed eebb a80f 14bd
00000020: ded3 ee3d 884f b73a 54aa 453c 2214 0a3c
00000030: 5a34 10bd 9bcb 62bd 3fc2 42bd 1d2b abbc
00000040: 4f35 843d 643c 74bd 2986 dd3d c6a8 4fbd
00000050: aed7 ae3c 125d 803d c135 363d 1ee3 083c
00000060: 016d aa3d 8d42 b2bc 8dae 023c 1ff0 323c
00000070: 57b0 37bd 80cf a2bc 43df 73bd 23e2 56bc
00000080: cf4a 21bd 6f38 83bc dcad 313d 8c13 5e3d
00000090: 1684 33bd e744 c53d 687c 69bc d1e6 66bd
000000a0: 20f6 4bbd 34ab 87bd 7884 bb3a a7e9 4a3d
000000b0: 88ee 7abd 7328 31bd 224b a3bc 042b 313d
000000c0: 4a45 cb3c cab4 8abd 09c6 1fbd 3346 87bd
000000d0: 0415 0d3d bc15 e4bc f357 b3bc 30ce ba3c
000000e0: 0dd7 753d 45ce b23d a83b 03bd 1ea6 86bb
000000f0: fd2d 043e c655 e43c 3d3d 033d 03e8 253b
00000100: a69d a03d b0c0 07bd d815 d23c 90b0 d6bc
00000110: 34d2 f33c 98a8 853d 59bd eb3c e4cb b53d
00000120: f00d 633d 3bca 853d 1f19 d7bc 2015 153d
00000130: ce6b 963c addf 96bd ce1a 15bd cc96 88bd
00000140: 058c c9bc e508 2c3d b86a 4e3d 6eb4 573d
00000150: f816 ab3d 38f3 ef3c 86be 91bd a76e e03c
00000160: 54cf e33d 5a37 e03c 582a bb3d 55bd 92bd
00000170: 3bb9 f63c ec9c a73d 0fdb 293d 15aa c2bc
00000180: ec3a 123d 282f 53bc c70b 823c a6e5 063b
00000190: 9ff5 533d 43df 32bd 1dcd 763a f15b 24bd
000001a0: 59d2 6e3d a6e1 6f3d f384 8a3b cfb2 8e3d
000001b0: bcb2 973c 39df 2cbd 83e6 85bd 3c77 a23d
000001c0: f4b8 0c3d 45ae d03c af7e 3b3d 2851 8cbd
000001d0: 0005 213d 4190 aa3d 640a 2f3d c092 82bd
000001e0: 6cd7 02bc 3143 dfbc de56 083b 6812 023d
000001f0: e139 a0bc 8059 2e3c 55b8 0fbd 8c8d 5a3d
00000200: b1a4 35b9 2131 6e3c 6270 d13d d86a 1fbc
00000210: 3291 9ebd c68f 0b3d 64e8 bdbc fc17 7abc
00000220: fd5d 3d3d 4042 5e3d 92d2 583d 33ab 83bc
00000230: de5e 4dbd c671 02bd 3b5a 753d 519a 39bd
00000240: 3bf0 083d 287d 8abd 8b4f 1e3d 53ba 2bbd
00000250: e102 353d 3923 7b3d f114 65bd 27e0 00bc
00000260: 01dd 333d ec2e 963d 0436 88bd 08e0 323d
00000270: fea1 453d f26e 463d 62e9 fbbc 029a 42bd
00000280: 64b4 a5bc abb1 4dbd 9f7c 9f3c 919e 343c
00000290: a4eb 75bc 22ec 853c 199d 173d dd95 663a
000002a0: bef1 9dbb 5984 2c3d b874 52bd 5bbc b93d
000002b0: 9a87 9f3d 7b49 263d fd42 02bd 009b 5e3c
000002c0: 7ba6 d03c b020 4ebc 9dba a83c bddf 333d
000002d0: 08ae 9c3c b55d 083d 5367 2c3d 7abb 7abd
000002e0: e3dc 793c 337a cd3d ef5b 2d3d 2f39 ec3b
000002f0: d261 9f3c e99b 573d 4783 6a3b cd70 aabc
00000300: f905 593d a211 3cbc 1f06 1c3d 5d6a 4fbc
00000310: 919c 743d 4485 f9bc babb d63d 003c 96bc
00000320: 5626 e13b a39e 6b3c 9c25 bdbc 85c3 82bb
00000330: 6da5 963b 961b 2f3c 2541 61bc 6adb 4a3d
00000340: 8733 5cbc 64ce 39bd 14f4 163d 1a64 b4b9
00000350: 5405 5dbc 3340 273d 08d7 b43b e63f 643b
00000360: 6eda 463c 0085 c73c 445c 8d3d 5f72 483d
00000370: 3281 e43c 82cc 57bd aad4 863d d6ac 6a3d
00000380: 72e4 213d d57d 673d 4a6b 8b3d 391e ad3c
00000390: c1e5 9fbc 9217 b63d 7cdd 013d aa65 263c
000003a0: 1e53 fb3c 972d 3c3c d018 0abd aa37 4ebd
000003b0: a22f 8eba 3ef2 353d 5a9d 213d ec64 ae3d
000003c0: 1f33 e03d d2b2 763d 4891 48bc b2ff 843d
000003d0: dcef a7bc 679b b33d e234 0abc ef15 443c
000003e0: 84ca d83c 0a09 2abd 6b1b 003d 2045 ad3d
000003f0: ab8c c93c 96a9 42bc c94a ecbc bac0 ebbb
0.10165532 0.06036883 -0.03699258 0.028532486 -0.048276152 -0.035401575 -0.007291552 -0.036147743
0.11661504 0.0013985494 0.012064535 0.008427652 -0.035206176 -0.055369955 -0.04754853 -0.020894581
0.0645548 -0.059627905 0.10816605 -0.050698064 0.021343078 0.06267752 0.044484857 0.00835493
0.08321572 -0.02176025 0.007976186 0.010921507 -0.044845905 -0.019874334 -0.05953909 -0.013115439
-0.039377984 -0.01601812 0.043378696 0.05421786 -0.04382714 0.09632283 -0.014250852 -0.056372467
-0.04979527 -0.06624451 0.0014306447 0.049539234 -0.061262637 -0.043251466 -0.019933287 0.043253914
0.024813313 -0.06772764 -0.03900722 -0.06605186 0.03444387 -0.027842395 -0.021892523 0.022803396
0.06001954 0.08730749 -0.032039315 -0.004109158 0.12908168 0.027872931 0.032040823 0.0025315292
0.07842569 -0.033142745 0.025645182 -0.026207238 0.029763319 0.06526297 0.028776811 0.0887678
0.055433214 0.06532713 -0.026257096 0.0363971 0.018361952 -0.073668815 -0.036402516 -0.06669387
-0.0246029 0.04200067 0.050394744 0.052662306 0.0835399 0.02929078 -0.071164176 0.027396513
0.11123529 0.027370144 0.09138936 -0.071650185 0.030117622 0.08184227 0.041468676 -0.023762742
0.035700724 -0.012889661 0.015874757 0.0020583658 0.051747914 -0.04366995 0.00094147195 -0.040126745
0.058306072 0.058564804 0.0042272746 0.06967699 0.018517844 -0.04220507 -0.06538107 0.079328984
0.034356073 0.025473723 0.04577511 -0.06851417 0.03931141 0.083282955 0.04273452 -0.063756466
-0.007985931 -0.027253719 0.002080373 0.031755835 -0.019558849 0.010641456 -0.035087902 0.053357646
-0.00017322857 0.01453808 0.102265134 -0.009730063 -0.077425376 0.03407266 -0.023182102 -0.015264507
0.046232212 0.0542624 0.05293519 -0.016072845 -0.0501393 -0.031846784 0.059900504 -0.045313183
0.033432227 -0.06762153 0.038650077 -0.04192574 0.0441922 0.061312888 -0.055928174 -0.007865942
0.043911938 0.073331684 -0.06650928 0.043670684 0.04825019 0.04844565 -0.030750934 -0.047510155
-0.020227619 -0.050218266 0.019468604 0.011024133 -0.015009794 0.016347948 0.037015054 0.0008796135
-0.0048200777 0.042118404 -0.051380843 0.09069129 0.07789536 0.04059742 -0.031802166 0.01358676
0.02547001 -0.0125810355 0.020596797 0.043914545 0.019125953 0.03329249 0.042090725 -0.061213948
0.015250417 0.10033073 0.042324003 0.0072089653 0.019455824 0.052638922 0.0035783814 -0.02080574
0.05298421 -0.011478813 0.038091775 -0.012659636 0.059719626 -0.030459054 0.10485025 -0.018339157
0.006871025 0.014381084 -0.023089223 -0.003990593 0.004597357 0.010687729 -0.013748442 0.049525656
-0.013440019 -0.045362845 0.036853865 -0.00034406857 -0.01349004 0.04083271 0.005518798 0.0034828125
0.012137039 0.024355412 0.06902364 0.048937198 0.027893636 -0.05268527 0.06583531 0.057293735
0.039524503 0.056516487 0.06807573 0.021132575 -0.019518735 0.088912144 0.031705365 0.010156075
0.030679282 0.011485479 -0.03371507 -0.050346054 -0.0010847936 0.044420473 0.039456703 0.08515343
0.109472506 0.06022913 -0.012241669 0.064940825 -0.020500116 0.08769875 -0.00843546 0.01196812
0.026463754 -0.041512527 0.031276148 0.0846045 0.024603209 -0.011881253 -0.028844254 -0.0071946057

6.weight f4 [35, 256]
00000000: 4dc2 423d 0413 3cbc 06cb 51bc ea5b ac3c
00000010: 18b6 ccbd 9589 98bd c3ae 203d dcf9 cebc
00000020: 5234 db3d 3595 703c 8d1f 19be 6086 0abd
00000030: ff6b fc3c b844 d9bc a883 ab3b bcd5 c2bb
00000040: 3bf7 31be 44d1 1bbc 0e3d 3ebe f15e ebbc
00000050: e8ed 2ebd f45f a4bd a649 4abd 7de9 a83d
00000060: 312e ce3d ae91 10be e462 f3bd 274a 46be
00000070: 42ab 473d 95e2 56bd d357 82bd e6ce 33be
00000080: e1d6 a3bd 13f2 a6bc dcd6 b03d 6018 c93a
00000090: 7f77 6d3c 0e73 2b39 ee5b 0a3d b1c1 81bd
000000a0: 363f 313d befc 033d 66fd 4abd d506 04be
000000b0: 1b71 25bd 4984 11bd f44e 33bd 1066 273d
000000c0: 4486 6dbd 9d7d 733c 46ba 95bc 9edf 95bc
000000d0: 7280 2bbd 799e 4fbd ae8b 9f3c 9371 b2bd
000000e0: b91f a33d 2a19 26be c010 8038 59b1 43be
000000f0: 6576 3e3d 020c eb3c 29d8 d33d c911 81bb
00000100: e486 033c 88c5 bbbc eec6 d8bd 03a0 ec3c
00000110: c9bd ed3c bd09 393d 3af2 27be 01c5 9d3d
00000120: 7df0 e5bd ab63 43be f8ab 473d a5e7 eb3c
00000130: ccce 9bbd 7c40 edbc c295 2abc 61cd edbc
00000140: ae21 29be ad26 853d 25f1 0fbe 36e5 8e3d
00000150: 21f3 cf3d f2a1 d23d efce 42bc 1710 0a3a
00000160: 8bdb f9bd 7d77 17bd dc6b 1cbe b7ae 39bd
00000170: fb4b 2dbe 353c 753d 28f1 3cbe 092c c3bd
00000180: e81e 18be f05f 89bc b08f 81be 9090 b93c
00000190: 9258 01be 5346 1cbe 80ca a5bd 3e87 2b3d
000001a0: 794f 053c ae02 583d 59c1 3cbe f70c 863d
000001b0: ecd5 b4be afa9 cf3c a7b5 41bd f0c9 87bd
000001c0: da3b 18bd 8e4f 59bd e267 cabc ec2f 57bd
000001d0: 05dc 83be af4f 0bbd 84f7 7ebe f512 44bd
000001e0: 0061 f13c 6846 01be ef05 93be 3618 aa3d
000001f0: 08e0 06be 7cb9 72be 0441 25bd f08a 5bbe
00000200: 16d6 cabd 8f7e 3fbe e75a 293d a89c 2f3c
00000210: 3b0a 263c 81b0 503d 77bd 6aba da94 4ebd
00000220: 89e7 48bd 1218 bcbd 95b8 36be 4d00 8fbd
00000230: 9405 3d3d 0f6d e13d de41 9ebd cc71 27bd
00000240: 987f b839 cdee c0bb c1df 023c 86e7 333d
00000250: fe16 fbbc b43b 46be 40da 60bd 0fb4 803d
00000260: ea66 9e3d e3d5 27bd 2ee4 b23c 30bf 27be
00000270: e310 8d3d ba95 80be 97a2 afbd 68ed 493d
00000280: aded a23d 9c16 bf3c 0187 51ba 19e7 d6bd
00000290: 8e36 fabb 0f89 9d3d 6d68 ce3c 6172 9fbd
000002a0: 4584 06be 399f 883d c6e6 3b3d 64f3 cabd
000002b0: 3bfe 61bd e37b 323c 441d 8bbc 51df 1cbe
000002c0: fffb a43c b3be e43d fef6 9c3d fce2 3fbe
000002d0: 082f bfbc bc32 3ebd 5689 93bc b011 90bb
000002e0: 6c83 0bbe 5c28 2dbb 172f 813d f199 a93d
000002f0: 4eef 583d be9a bcbd c2b7 663d b7dc 0dbe
00000300: cd34 61bd b1c8 d73b b1a3 b13d 30b7 8f3d
00000310: 9ee1 ae3d b9a6 a93c 9685 a33d 49bf 45bd
00000320: c299 bb3a 62ce a03d b32a 9bbd 6f61 cdbd
00000330: ff3c e6bd 8370 a73c 9b7a 51bd adff c3bd
00000340: 3bab e4bc c762 2a3d bf42 1dbe 1a2c c63d
00000350: f061 febc 08b4 75bd 1b19 053c 41ce 7abe
00000360: ba5c 63bd de66 74bd dfdc 83bc f241 973c
00000370: 022d a6bc 3719 68bd 6a73 0a3c 96ec 19bd
00000380: c64e a03c ad8e 3dbe 1906 dabd 3053 a6bd
00000390: 56d7 61be f14d 19be 06ae 01be 0cbe 8c3d
000003a0: 4894 e53d 35be 023c 68be 963d 7d29 54bd
000003b0: 3b34 a3ba 7707 783d 54e4 d83c e7aa 093c
000003c0: d22e 87be b72d 443d 1702 97bd c417 33be
000003d0: eb57 d53c 93a8 0abe 3a74 85be 2a55 15be
000003e0: 0cd1 b3bd 200e aa3c 0963 d5bd c539 823d
000003f0: df6e 65be 6262 03bd f859 15be ca4f c7bc
0.04754858 -0.011479143 -0.012804752 0.021039922 -0.09995669 -0.07448117 0.039229166 -0.025265627
0.10703339 0.014684011 -0.14953442 -0.033819556 0.030813215 -0.026522025 0.0052342005 -0.0059458893
-0.17379467 -0.009510342 -0.18577978 -0.028731795 -0.042707354 -0.08026114 -0.049386643 0.08247659
0.10067404 -0.14118072 -0.11884096 -0.19364224 0.04874731 -0.05246218 -0.063644074 -0.17559394
-0.07999969 -0.020379102 0.08634731 0.0015342347 0.014493822 0.00016350692 0.033779077 -0.06335772
0.043273173 0.032223456 -0.049558066 -0.12893231 -0.04039107 -0.035526548 -0.043776467 0.04086882
-0.057989374 0.0148614915 -0.018277299 -0.018295106 -0.041870542 -0.05068824 0.019475784 -0.08713069
0.07965035 -0.16220537 6.1066356e-05 -0.19110622 0.04649963 0.02869225 0.10343964 -0.0039388877
0.008027766 -0.022921339 -0.10584818 0.028884893 0.02902116 0.045175303 -0.16400996 0.07703591
-0.1122751 -0.19080989 0.048747987 0.02879698 -0.07607803 -0.028961413 -0.010411682 -0.029028596
-0.16516754 0.065015174 -0.14056833 0.06977312 0.10153795 0.10284795 -0.011890157 0.000526668
-0.122000776 -0.036979187 -0.1527552 -0.045332637 -0.16923515 0.05987187 -0.18451369 -0.095298834
-0.1485554 -0.01676938 -0.25304937 0.02265194 -0.12631443 -0.15261202 -0.080952644 0.041877024
0.008136624 0.05273693 -0.18433131 0.065454416 -0.3531946 0.025349466 -0.047292378 -0.066303134
-0.037166454 -0.053054385 -0.024707738 -0.052535936 -0.257538 -0.03401154 -0.24899107 -0.04786964
0.029465199 -0.12624514 -0.28715464 0.08305399 -0.13171399 -0.23703569 -0.040345207 -0.21439719
-0.09904115 -0.18700622 0.041346457 0.010718502 0.010134275 0.050949577 -0.0008954624 -0.050434925
-0.049048934 -0.091842785 -0.1784385 -0.06982479 0.046147898 0.110071294 -0.07727407 -0.04088001
0.0003519028 -0.0058878423 0.007987917 0.04392197 -0.030650612 -0.19358712 -0.05489564 0.062843435
0.07734473 -0.040975463 0.02183732 -0.16381526 0.068879865 -0.25114232 -0.085759334 0.049298674
0.07955489 0.02332621 -0.00079928344 -0.10493297 -0.007635898 0.076921575 0.025196278 -0.07785488
-0.13136394 0.06670994 0.04587438 -0.09909704 -0.055174094 0.010893795 -0.016981728 -0.15319563
0.020139692 0.111691855 0.076642975 -0.18738931 -0.023337856 -0.046435103 -0.018009823 -0.0043966398
-0.13624352 -0.002642176 0.0630781 0.08281315 0.052962594 -0.09209202 0.05632759 -0.13853727
-0.054981995 0.0065852036 0.086738 0.07017362 0.08539127 0.020709382 0.07984464 -0.048278127
0.0014312791 0.078518644 -0.075765036 -0.100283496 -0.11242103 0.020439392 -0.051142316 -0.09570251
-0.02791368 0.041598108 -0.15357493 0.096763805 -0.03105256 -0.059986144 0.008123661 -0.24492742
-0.055508353 -0.059668414 -0.01609653 0.018464062 -0.020285133 -0.05666467 0.008450368 -0.03757914
0.019568812 -0.18511458 -0.10645694 -0.081213355 -0.220548 -0.14971139 -0.12664041 0.06872186
0.11209923 0.007979919 0.07360536 -0.05179738 -0.0012451479 0.060553994 0.026476063 0.008402563
-0.2640291 0.04789516 -0.073734455 -0.17489535 0.0260429 -0.13540868 -0.26065236 -0.14583269
-0.08780107 0.020758688 -0.1041928 0.06358675 -0.22405575 -0.032076247 -0.14585102 -0.024330039

6.bias f4 [35]
00000000: 757a 4fbd 65e0 2fbc 291c 7cbd 77ab 33bd
00000010: 9205 83bd a144 613c 17df 633c 7bb3 e9bb
00000020: 0cd5 c03c bd50 5bbc 5584 dfbb 4495 2ebd
00000030: f885 cd3a c53d 4c3d ea96 9e3b 07a7 16bd
00000040: 2821 48bd 8d3a 643c 919e 4cbd 1459 f7bc
00000050: a75e 08bd 6282 63bc b765 053d c282 89bc
00000060: 63f3 423d 22d8 16bd b983 143d 41ae 0d3d
00000070: 8862 44bd 9c53 5dbd 55f2 4d3d c3ee 27bd
00000080: 5ac4 abbc 009a 393d f86a 42bd
-0.050653894 -0.010734652 -0.061550293 -0.043864693 -0.06397547 0.013749273 0.013908169 -0.0071319914
0.023539089 -0.013385949 -0.006821195 -0.04262282 0.0015680185 0.049863596 0.0048397677 -0.036780383
-0.048859745 0.013929975 -0.04995591 -0.030193843 -0.033293393 -0.013886066 0.032567706 -0.016785983
0.047595393 -0.036827214 0.036258433 0.03459001 -0.04794553 -0.054034814 0.050279934 -0.040999185
-0.020967651 0.04531288 -0.047465295
